vorf/01-intro-to-neural-nets/output/last_model.pth (torch, 316564 bytes, 24 tensors)

weight f4 [32, 3, 3, 3]
-0.05004301 0.043655522 -0.107349195 0.17441663 -0.14843 -0.090217225 -0.061268345 0.0042042085
-0.18827476 -0.11107782 -0.015649348 0.18618265 -0.08426951 -0.16080329 -0.0051658424 0.04265503
-0.12985149 0.11531247 -0.15965843 0.0071855616 0.10094011 -0.12757812 0.15570998 0.110526636
0.12993604 0.08038593 -0.06997319 0.058989573 0.094840124 0.08101474 0.12195033 -0.045908347
-0.16240321 -0.06114556 0.03033915 -0.09497307 0.06793251 -0.08609677 0.07159451 -0.14647411
-0.12535943 -0.03661453 0.10326284 -0.026396226 -0.06693729 0.05962964 -0.18298596 -0.023196267
-0.18418354 0.1586165 0.09922866 -0.08135645 -0.018259233 -0.0002692377 0.17034169 -0.034288917
-0.026413215 -0.1586482 0.04644842 0.17497092 -0.15387562 0.1390647 0.104155466 0.19309025
-0.07541304 -0.039716795 -0.07283019 0.06461853 0.08632448 0.13879134 -0.085526146 -0.04151117
-0.04773231 -0.15584423 -0.123379335 -0.15520336 0.15945338 -0.15234308 0.04461433 -0.11705544
-0.0524569 -0.067839876 0.1592034 0.053541787 -0.07326767 -0.10093803 -0.12774205 0.009544457
0.17150669 0.05732987 -0.10698789 0.08174898 -0.13797554 0.1139772 -0.16545227 0.14206183
0.14036177 -0.076403774 0.026704589 0.15148953 -0.12094937 0.031413686 -0.18551734 0.12574859
-0.0069039124 0.16033924 0.030718312 -0.06782592 -0.056422543 -0.031206412 0.102286614 0.09657356
0.17760667 0.018528087 0.025910823 0.06328922 0.06851165 0.0065543405 0.12748694 0.11981334
-0.18422148 -0.10549266 -0.19274029 0.05665178 -0.06428983 0.093293704 -0.008190934 0.17344578
-0.030580139 -0.11786171 0.10508429 0.06513582 0.14676543 0.053580955 0.07953138 -0.07716986
0.18088187 0.11335708 -0.006671998 0.087878056 0.14105617 -0.076779224 -0.15943994 -0.08844596
0.04165453 -0.118867666 0.1081998 -0.13766648 0.030213285 -0.028294832 -0.18704565 -0.15276375
-0.043644123 -0.16435215 -0.098163545 -0.07373665 -0.10465257 -0.014570401 -0.030403938 0.046812292
-0.14807992 0.0028715539 -0.11645371 0.17863953 0.031054348 -0.10092853 -0.013325339 -0.16149366
0.04641323 -0.032682154 0.07890099 0.06305938 -0.053995997 0.08450297 -0.009276734 -0.15893349
-0.045659978 0.1080955 0.015361989 -0.17840505 0.16015327 0.061289255 -0.05950322 -0.024993218
-0.0986301 0.1110749 0.030211344 -0.1751692 -0.16268001 -0.0041607935 0.16933659 0.060597066
0.024538027 -0.11373252 0.19384007 -0.13822469 -0.17407186 0.11207432 0.10477429 0.053167395
0.0061699334 0.11225904 9.6091964e-05 0.15467705 0.15563487 0.052236155 0.0862493 0.16068369
0.019644212 0.027493274 -0.18249705 -0.04756682 0.010327325 0.08883252 -0.008239605 -0.14985962
0.16135693 0.08945618 -0.18496096 -0.083809264 -0.07040181 -0.10282923 -0.046696424 0.13751388
0.18442081 -0.052159753 0.18215938 0.16186541 -0.053432513 0.13638304 0.039887283 -0.008119456
-0.1747928 0.10004287 0.055033587 0.0081835305 0.18418364 -0.07872993 0.056413826 0.090886705
0.12540905 0.09093815 0.115680344 0.14298506 0.13093078 0.0039020353 -0.16555423 0.021343244
-0.020427777 -0.054135256 -0.012360515 0.08414516 -0.15652171 -0.0739553 -0.086832605 -0.058965027
00000000: e6f9 4cbd 22d0 323d e5d9 dbbd 469a 323e
00000010: 09fe 17be cfc3 b8bd 84f4 7abd 75c3 893b
00000020: 19cb 40be c57c e3bd 1033 80bc aaa6 3e3e
00000030: 7e95 acbd 9ea9 24be 3a46 a9bb 0ab7 2e3d
00000040: caf7 04be f228 ec3d 807d 23be dc74 eb3b
00000050: b0b9 ce3d d7a3 02be 7072 1f3e ca5b e23d
00000060: f40d 053e 61a1 a43d 1b4e 8fbd 0d9f 713d
00000070: 8a3b c23d 0eeb a53d 18c1 f93d 640a 3cbd
00000080: 074d 26be c473 7abd cf89 f83c 3e81 c2bd
00000090: 3320 8b3d 8153 b0bd 24a0 923d 4ffd 15be
000000a0: 395e 00be 1ef9 15bd 787b d33d e63c d8bc
000000b0: 6b16 89bd 363e 743d ac60 3bbe 1906 bebc
000000c0: 9c9a 3cbe 5d6c 223e 6538 cb3d 369e a6bd
000000d0: 6394 95bc 7928 8db9 0d6e 2e3e 8972 0cbd
000000e0: 8760 d8bc ac74 22be b340 3e3d 942b 333e
000000f0: 9291 1dbe fa66 0e3e 764f d53d 73b9 453e
00000100: 2772 9abd 14ae 22bd ff27 95bd b856 843d
00000110: e4ca b03d 511f 0e3e 5528 afbd 9e07 2abd
00000120: f482 43bd a195 1fbe 4eae fcbd a1ed 1ebe
00000130: bf47 233e d3ff 1bbe 84bd 363d c3ba efbd
00000140: 0cdd 56bd a2ef 8abd 3706 233e a24e 5b3d
00000150: 5c0d 96bd 99b8 cebd d0ce 02be 5b60 1c3c
00000160: 739f 2f3e bad2 6a3d 781c dbbd 026c a73d
00000170: 7649 0dbe e16c e93d 526c 29be a878 113e
00000180: ffba 0f3e 9579 9cbd 95c3 da3c 1220 1b3e
00000190: 4eb4 f7bd a3ab 003d 42f8 3dbe 3dc4 003e
000001a0: 373a e2bb f82f 243e f8a4 fb3c 51e8 8abd
000001b0: 531b 67bd 97a4 ffbc a57b d13d 5cc8 c53d
000001c0: 86de 353e 37c8 973c ef42 d43c c79d 813d
000001d0: d64f 8c3d cbc5 d63b f08b 023e b260 f53d
000001e0: 8ea4 3cbe 890c d8bd b65d 45be b20b 683d
000001f0: 63aa 83bd c510 bf3d 4433 06bc c59b 313e
00000200: 3383 fabc 7b61 f1bd 6f36 d73d ee65 853d
00000210: ad49 163e b477 5b3d 59e1 a23d 3b0b 9ebd
00000220: 1939 393e c227 e83d c7a0 dabb 69f9 b33d
00000230: 0771 103e 6d3e 9dbd 3944 23be 2823 b5bd
00000240: f19d 2a3d e470 f3bd db97 dd3d 71f8 0cbe
00000250: da81 f73c 90ca e7bc e588 3fbe 1a6e 1cbe
00000260: 2ec4 32bd ee4b 28be f809 c9bd 3e03 97bd
00000270: 1654 d6bd b1b8 6ebc ae11 f9bc 3fbe 3f3d
00000280: 43a2 17be ae30 3c3b 487f eebd 48ed 363e
00000290: b065 fe3c 9eb3 cebd 8652 5abc 985e 25be
000002a0: cd1b 3e3d b9dd 05bd d896 a13d 4725 813d
000002b0: e82a 5dbd e50f ad3d 71fd 17bc 76bf 22be
000002c0: f505 3bbd 2c61 dd3d dab0 7b3c d0af 36be
000002d0: 38ff 233e 710a 7b3d a6b9 73bd 94be ccbc
000002e0: 94fe c9bd 3d7b e33d c87d f73c 8e5f 33be
000002f0: 9795 26be 4457 88bb 9266 2d3e a134 783d
00000300: f903 c93c 98ec e8bd 037e 463e c68a 0dbe
00000310: e53f 32be 3987 e53d e793 d63d 0ec6 593d
00000320: 272d ca3b 11e8 e53d fb84 c938 a963 1e3e
00000330: bf5e 1f3e 94f5 553d 79a3 b03d 448a 243e
00000340: e6ec a03c 9339 e13c 82e0 3abe 6dd5 42bd
00000350: f133 293c d3ed b53d 69ff 06bc cd74 19be
00000360: c03a 253e cd34 b73d 6866 3dbe 31a4 abbd
00000370: d32e 90bd 2298 d2bd c044 3fbd 70d0 0c3e
00000380: cfd8 3c3e 77a5 55bd fd87 3a3e 0cc0 253e
00000390: 0ddc 5abd ffa7 0b3e d960 233d 7707 05bc
000003a0: e2fc 32be 47e3 cc3d e66a 613d 3714 063c
000003b0: a39a 3c3e 283d a1bd 2f12 673d cf22 ba3d
000003c0: 3b6b 003e c83d ba3d d1e9 ec3d ad6a 123e
000003d0: b812 063e 4ab9 7f3b 0c87 29be 07d8 ae3c
000003e0: 2758 a7bc eebc 5dbd c283 4abc 4c54 ac3d
000003f0: 3a47 20be e075 97bd 4bd5 b1bd 5085 71bd

bias f4 [32]
-0.03327742 0.09818662 -0.047182802 0.16195115 -0.12186343 0.18181978 -0.16655259 -0.013643769
0.18922254 -0.04612247 0.16661456 0.097687945 -0.08087743 0.02780219 -0.14893271 0.13946678
-0.1411379 0.070652194 -0.12532063 0.019498767 0.18246908 -0.050967984 0.18308954 0.062733114
0.15026358 0.048252504 0.0981557 -0.0070091533 0.09005886 -0.11979385 -0.03990687 0.11814816
00000000: e74d 08bd 1116 c93d c142 41bd 86d6 253e
00000010: 8993 f9bd f72e 3a3e c38c 2abe 1d8a 5fbc
00000020: 8ec3 413e eaea 3cbd 029d 2a3e 9e10 c83d
00000030: 11a3 a5bd 6bc1 e33c d181 18be 61d0 0e3e
00000040: 7486 10be 19b2 903d 0d54 00be e1bb 9f3c
00000050: 2dd9 3a3e cec3 50bd d37b 3b3e 387a 803d
00000060: b2de 193e 6ba4 453d db05 c93d 0aad e5bb
00000070: c870 b83d 7a56 f5bd 6375 23bd aaf7 f13d

weight f4 [32]
0.9972678 0.99997973 0.9978059 1.0033566 1.0025665 1.0041131 1.0011716 0.9979706
1.0032251 1.0030966 0.99940884 1.0021722 1.0005189 1.0036621 1.0048966 0.9956654
0.99552494 1.0072595 1.0093406 0.9988556 1.0029982 0.99962604 1.0090096 0.9945125
0.99326116 0.99908996 1.0015941 0.99953073 0.99069345 0.99391925 1.002422 0.9976509
00000000: f14c 7f3f acfe 7f3f 3570 7f3f fd6d 803f
00000010: 1954 803f c786 803f 6426 803f 007b 7f3f
00000020: ae69 803f 7865 803f 42d9 7f3f 2e47 803f
00000030: 0111 803f 0078 803f 74a0 803f ede3 7e3f
00000040: b9da 7e3f e1ed 803f 1332 813f 00b5 7f3f
00000050: 3f62 803f 7ee7 7f3f 3a27 813f 5f98 7e3f
00000060: 5d46 7e3f 5cc4 7f3f 3c34 803f 3fe1 7f3f
00000070: 169e 7d3f 7e71 7e3f 5d4f 803f 0d66 7f3f

bias f4 [32]
-0.0026193312 -0.0003355422 0.0021703169 -0.00043351212 0.00097140024 0.0021249212 0.0014565646 -0.0050390293
-0.0012123126 0.0044653732 0.0025305578 -0.004954294 -0.0049510594 0.0014695884 0.0060125007 -0.0013779729
0.013605475 -6.124401e-05 0.0015465751 -0.0026635316 0.002305648 0.0006868717 0.0040907883 0.007437513
-0.0010850367 0.0020352819 0.00074084994 -0.004067579 -0.0039650984 -0.0047986587 0.00027439636 -0.0013504385
00000000: 16a9 2bbb b6eb afb9 e03b 0e3b 0349 e3b9
00000010: 91a5 7e3a 4342 0b3b 33ea be3a 711e a5bb
00000020: 76e6 9eba 4452 923b b7d7 253b a157 a2bb
00000030: 7f3c a2bb 349f c03a 8304 c53b 199d b4ba
00000040: 80e9 5e3c 2170 80b8 73b6 ca3a a58e 2ebb
00000050: 5b1a 173b 2e0f 343a 050c 863b 62b6 f33b
00000060: ca37 8eba 5d62 053b 9935 423a 5349 85bb
00000070: a8ed 81bb 113e 9dbb dbdc 8f39 3201 b1ba

running_mean f4 [32]
-0.105077736 -0.14767058 -0.2997998 0.28293145 0.29877165 -0.45270777 -0.40546107 0.3554587
0.8577072 -0.21836652 -0.013476924 0.6882711 -0.075085126 0.19741362 -0.42759186 -0.34237045
-0.17536911 0.28291228 0.017151002 0.3934954 -0.13639863 0.117327996 -0.22493115 0.010757421
-0.05379988 0.1575025 -0.36690092 0.0017374391 -0.032956112 -0.4992603 0.1780717 -0.2305652
00000000: ff32 d7bd f536 17be 5c7f 99be 64dc 903e
00000010: 99f8 983e 50c9 e7be 9898 cfbe affe b53e
00000020: b392 5b3f 799b 5fbe 51ce 5cbc 8932 303f
00000030: 3bc6 99bd cc26 4a3e 52ed dabe 2e4b afbe
00000040: f693 33be e1d9 903e 4280 8c3c 3b78 c93e
00000050: 15ac 0bbe a949 f03d 5a54 66be e53f 303c
00000060: 435d 5cbd 5648 213e 70da bbbe c8ba e33a
00000070: fdfc 06bd 0c9f ffbe 6d58 363e 4919 6cbe

running_var f4 [32]
0.27906668 0.26633552 0.14299457 0.08434378 1.0286356 1.5728345 0.32972112 1.0019346
1.8841416 0.15114304 0.47904715 1.9593983 0.33083734 0.232706 0.39466873 1.0021662
0.039635926 0.25999692 0.22103652 0.33880574 0.61275655 0.10964024 0.89883924 0.12202359
0.1298612 0.05961684 0.8142717 0.07644189 0.26353186 0.8956239 0.31467137 0.9795536
00000000: d4e1 8e3e 215d 883e 2b6d 123e 6fbc ac3d
00000010: 55aa 833f a452 c93f 35d1 a83e 653f 803f
00000020: 8d2b f13f 3ec5 1a3e ab45 f53e 90cd fa3f
00000030: 8363 a93e 7b4a 6e3e 0512 ca3e fb46 803f
00000040: 4859 223d 511e 853e 6657 623e f277 ad3e
00000050: 9ddd 1c3f 108b e03d 541a 663f 81e7 f93d
00000060: 56fa 043e ca30 743d 1c74 503f 918d 9c3d
00000070: a6ed 863e 9c47 653f 9b1c a13e 06c4 7a3f

weight f4 [64, 32, 3, 3]
0.044942614 0.0016786222 -0.043002 0.029895086 -0.055526346 0.05071506 0.04103691 -0.0092824735
0.053391986 0.04195799 -0.04966053 -0.012709097 -0.01809104 0.0051438524 0.019941246 -0.00016352655
0.031891 0.017269693 -0.030597614 0.013436139 0.04635774 -0.017023833 0.04941585 -0.007306893
-0.053314302 -0.011763931 -0.031115681 -0.033559814 -0.013855796 -0.019400755 0.009274436 -0.031618685
0.061293185 -0.003754356 -0.027463278 0.008422202 0.0053754025 0.025582904 0.04045738 0.03379702
0.055933163 0.025793543 0.009238577 -0.004847741 0.03114347 0.0053927824 -0.050953962 0.004463114
-0.014233198 -0.017569296 0.05188709 0.049212724 -0.003659207 0.05960362 0.05906844 0.047094278
0.028743016 0.0378309 -0.0056290342 0.034263242 0.047725827 -0.043021057 -0.028409846 0.0110527845
-0.013611338 0.044433843 -0.04454633 -0.03853952 -0.004988922 0.019689703 0.035280626 -0.0069046346
-0.043884147 0.030035796 -0.01711539 0.032249466 0.008497645 0.048056394 -0.005723711 0.005967357
0.060433913 0.055693217 0.047526255 0.005647358 0.015927114 -0.025151556 0.029832428 -0.034700956
-0.008818519 0.0580041 0.028167402 -0.05188054 0.033760253 -0.032911688 -0.023790754 0.027701601
-0.045949545 -0.042306654 0.03503184 0.019754408 0.04537848 0.038410403 -0.042535204 -0.024295097
-0.029442329 0.024017703 0.052589945 0.006986451 -0.025124077 0.022682304 -0.05228028 0.0417097
0.018257732 0.0017992312 4.3837765e-05 -0.011272369 0.005242764 -0.03235061 0.06717686 -0.037653424
0.038981806 -0.016056001 0.054682273 -0.0064530075 -0.015703397 -0.009273101 -0.03023893 -0.04631336
-0.012197995 0.055147044 0.012568357 0.033550173 0.008609145 0.018768545 0.026780505 -0.043533694
0.022629322 -0.047612466 -0.0035699883 -0.021187762 -0.028920501 -0.010992239 0.04080455 -0.048619
0.006114127 -0.0040293154 0.0054289056 0.009641082 -0.010972652 0.03675205 0.016105868 0.0042925165
0.026951166 -0.04080295 0.037471063 -0.04108418 -0.0086910855 0.036739316 -0.009904672 -0.029143486
0.00078888476 0.011184513 -0.02369623 0.036085803 0.012965511 -0.035000537 0.044218134 0.062759794
0.03567232 -0.040239524 0.0543608 0.013296128 -0.03637881 0.029168429 -0.029336115 -0.044407126
0.04806718 -0.0063735717 0.011692585 -0.036442004 0.032240845 0.026011035 -0.04910112 -0.04537769
-0.056740392 0.028223474 -0.011557204 -0.05147474 -0.030567894 0.02944705 -0.0026259217 0.008873646
0.008442437 0.04053996 -0.023751553 0.036949404 -0.03988467 0.04836882 -0.023128673 0.04819293
-0.024738321 -0.03578577 0.0022146574 -0.017800013 0.0062855473 0.041778702 -0.015223675 0.032601032
0.056499775 0.013343828 -0.024044074 0.025972964 -0.010952629 0.0016961562 -0.04765474 0.01591334
-0.012245808 0.044385068 -0.022400029 0.030401379 0.034714155 0.041917987 0.008412871 0.03637969
0.03987893 0.048430413 0.06216663 -0.022997452 -0.020551631 -0.01489984 0.020820461 0.025106253
-0.010192645 0.05022328 0.04143485 0.027682036 -0.027271505 0.038537048 0.036586538 -0.04234512
-0.016986812 -0.04972131 -0.0062806015 0.0126188025 -0.018190594 0.029497113 -0.05092098 -0.012774528
0.048964977 -0.047472864 -0.008343274 -0.026549837 -0.025457487 0.03637992 0.04366383 -0.018332291
00000000: bf15 383d 3705 dc3a dd22 30bd 8ae6 f43c
00000010: 986f 63bd 98ba 4f3d 5216 283d 8415 18bc
00000020: 8eb1 5a3d 24dc 2b3d d768 4bbd d139 50bc
00000030: a933 94bc c38d a83b d35b a33c 5378 2bb9
00000040: 23a0 023d 2c79 8d3c d9a7 fabc 4023 5c3c
00000050: 9de1 3d3d 9175 8bbc 4668 4a3d a96e efbb
00000060: 1960 5abd 81bd 40bc 50e6 febc 0476 09bd
00000070: 6c03 63bc 55ee 9ebc cef3 173c 9882 01bd
00000080: 900e 7b3d a40b 76bb abfa e0bc 47fd 093c
00000090: 2524 b03b 3d93 d13c a3b6 253d be6e 0a3d
000000a0: 2c1a 653d fb4c d33c 675d 173c cdd9 9ebb
000000b0: 9720 ff3c f0b5 b03b 1ab5 50bd 503f 923b
000000c0: 5c32 69bc 7ced 8fbc 8f87 543d 4893 493d
000000d0: 4ecf 6fbb ed22 743d c0f1 713d eee5 403d
000000e0: 7976 eb3c 93f4 1a3d c373 b8bb 9d57 0c3d
000000f0: 287c 433d d936 30bd c4bb e8bc bd16 353c
00000100: 1702 5fbc 4300 363d 3676 36bd 9edb 1dbd
00000110: 1c7a a3bb 4d4c a13c 6b82 103d 4640 e2bb
00000120: ddbf 33bd a10d f63c 9335 8cbc 0418 043d
00000130: b539 0b3c c8d6 443d f88d bbbb d289 c33b
00000140: 8d89 773d 921e 643d e4aa 423d 790d b93b
00000150: 9479 823c a30a cebc 2363 f43c 9722 0ebd
00000160: 8d7b 10bc b595 6d3d 53bf e63c b080 54bd
00000170: 3148 0a3d 68ce 06bd d4e4 c2bc 78ee e23c
00000180: 9735 3cbd be49 2dbd 8c7d 0f3d ffd3 a13c
00000190: c9de 393d 3a54 1d3d 6539 2ebd 8306 c7bc
000001a0: 0a31 f1bc c6c0 c43c 8e68 573d 99ee e43b
000001b0: 02d1 cdbc 3dd0 b93c d923 56bd cad7 2a3d
000001c0: 3d91 953c 2ed4 eb3a 71de 3738 beaf 38bc
000001d0: 7ecb ab3b 1382 04bd 0694 893d 7a3a 1abd
000001e0: 63ab 1f3d e087 83bc 85fa 5f3d c073 d3bb
000001f0: 69a4 80bc 34ee 17bc a2b7 f7bc 14b3 3dbd
00000200: 19da 47bc dee1 613d 83eb 4d3c e86b 093d
00000210: 5f0d 0d3c 7ec0 993c ca62 db3c 6350 32bd
00000220: 2161 b93c 4a05 43bd 77f6 69bb f591 adbc
00000230: b0ea ecbc cb18 34bc ac22 273d b724 47bd
00000240: 0459 c83b 5908 84bb f6e4 b13b a1f5 1d3c
00000250: a3c6 33bc 5189 163d 74f0 833c 3da8 8c3b
00000260: b1c8 dc3c fe20 27bd 427b 193d e347 28bd
00000270: 0e65 0ebc f77b 163d 3547 22bc 52be eebc
00000280: 29cd 4e3a 3f3f 373c 991e c2bc b5ce 133d
00000290: 4b6d 543c b95c 0fbd 131e 353d 3588 803d
000002a0: 231d 123d 33d2 24bd 6ea9 5e3d 01d8 593c
000002b0: f201 15bd a1f2 ee3c 4b52 f0bc 3fe4 35bd
000002c0: 17e2 443d 65d9 d0bb 4292 3f3c 3644 15bd
000002d0: fa0e 043d 1815 d53c 421e 49bd f5dd 39bd
000002e0: 9d68 68bd ea34 e73c 6d5a 3dbc 2dd7 52bd
000002f0: 8569 fabc f13a f13c a817 2cbb c562 113c
00000300: 2652 0a3c 3b0d 263d 9e92 c2bc 4258 173d
00000310: 1c5e 23bd 621e 463d 5878 bdbc f365 453d
00000320: 05a8 cabc 1994 12bd c923 113b 55d1 91bc
00000330: fef6 cd3b 2520 2b3d b96c 79bc a988 053d
00000340: 4f6c 673d 12a0 5a3c 14f8 c4bc 41c5 d43c
00000350: a872 33bc 8f51 de3a 9e31 43bd b15c 823c
00000360: a4a2 48bc 1ecd 353d 4480 b7bc 500c f93c
00000370: 6e30 0e3d 32b2 2b3d 23d6 093c df02 153d
00000380: 1758 233d f85e 463d 70a2 7e3d 2765 bcbc
00000390: e55b a8bc 751e 74bc ac8f aa3c a1ab cd3c
000003a0: 0dff 26bc edb6 4d3d 97b7 293d 70c5 e23c
000003b0: 7e68 dfbc 06d9 1d3d c4db 153d 1472 2dbd
000003c0: ed27 8bbc 93a8 4bbd 81cd cdbb 18bf 4e3c
000003d0: 7104 95bc eea3 f13c 8492 50bd 414c 51bc
000003e0: 808f 483d e872 42bd 3ab2 08bc 0b7f d9bc
000003f0: 388c d0bc 1c03 153d d8d8 323d 9a2d 96bc

bias f4 [64]
-0.011492068 -0.022743598 0.023561848 -0.03544836 0.028576171 -0.014284287 -0.018795567 0.00087209477
0.045145113 0.0033886347 0.010833177 -0.0263786 -0.046262853 -0.02499451 0.03656757 0.00979195
-0.050730012 0.03331788 -0.03631135 -0.004879605 0.024673559 -0.0018481145 -0.018212337 0.027517246
0.03673389 0.027439909 -0.007359559 -0.032941997 -0.0011893791 0.050530534 -0.013668108 0.002461984
0.03623015 -0.009034756 0.034035653 0.008556186 0.0012936431 0.014629066 -0.03647261 -0.028644752
0.04897549 0.057852875 0.009674116 -0.012715595 0.012377815 -0.05251593 -0.056386065 -0.030806156
-0.032698054 -0.007979006 0.017799778 -0.015086691 -0.0064085973 -0.032378383 0.03238016 0.007461238
0.038513407 0.035818953 0.030676788 0.01878862 -0.040996287 -0.010960065 -0.04157105 0.010079519
00000000: 3a49 3cbc c850 babc c704 c13c 4d32 11bd
00000010: 9318 ea3c a408 6abc 29f9 99bc 4a9d 643a
00000020: 15ea 383d db13 5e3b a37d 313c ef17 d8bc
00000030: 1e7e 3dbd 49c1 ccbc e0c7 153d 6a6e 203c
00000040: 46ca 4fbd 5478 083d 36bb 14bd 18e5 9fbb
00000050: 3420 ca3c 6f3c f2ba 0a32 95bc d96b e13c
00000060: 4776 163d a9c9 e03c 7528 f1bb 30ee 06bd
00000070: f1e4 9bba 1bf9 4e3d 33f0 5fbc 3d59 213b
00000080: 1166 143d 8306 14bc f868 0b3d 3f2f 0c3c
00000090: 768f a93a c0ae 6f3c 4e64 15bd 66a8 eabc
000000a0: 869a 483d 23f7 6c3d 2f80 1e3c 1255 50bc
000000b0: 52cc 4a3c f21a 57bd 13f5 66bd 315d fcbc
000000c0: 65ee 05bd 60ba 02bc d7d0 913c 2b2e 77bc
000000d0: 36ff d1bb 329f 04bd 0fa1 043d 677d f43b
000000e0: 3cc0 1d3d e5b6 123d e34d fb3c 98ea 993c
000000f0: b9eb 27bd d891 33bc 6846 2abd 9124 253c

weight f4 [64]
1.0042638 1.004447 0.9984964 0.99374235 0.99790317 1.0027441 0.9979922 0.99808973
0.9989257 1.0111762 0.998085 0.99939847 1.0048705 1.0079285 1.0034343 1.0002029
0.99774647 0.99678075 0.99823004 1.0004674 0.9977138 1.0023501 1.0067573 1.0048572
0.9979943 0.9977433 1.0031676 0.99972016 0.99670774 0.9954086 1.002599 0.99688244
1.0061418 0.99776065 0.9957857 0.99904716 0.99913037 0.997168 0.9979803 0.9988913
0.99814546 1.0011096 1.005446 0.99787873 0.9953759 0.9963725 0.9998641 1.0022584
1.0002453 1.0019262 0.99787515 1.0037009 1.0039805 1.0012407 0.9980176 1.004008
0.9998777 0.99338025 1.001438 0.9997482 0.9984285 0.99712163 0.9990738 1.0007219
00000000: b78b 803f b891 803f 769d 7f3f e665 7e3f
00000010: 9576 7f3f eb59 803f 6b7c 7f3f cf82 7f3f
00000020: 98b9 7f3f 396e 813f 8082 7f3f 94d8 7f3f
00000030: 999f 803f cd03 813f 8970 803f a606 803f
00000040: 506c 7f3f 062d 7f3f 018c 7f3f 510f 803f
00000050: 2c6a 7f3f 024d 803f 6cdd 803f 299f 803f
00000060: 8e7c 7f3f 1b6c 7f3f cc67 803f a9ed 7f3f
00000070: 3d28 7f3f 19d3 7e3f 2a55 803f b033 7f3f
00000080: 41c9 803f 3e6d 7f3f d0eb 7e3f 8ec1 7f3f
00000090: 02c7 7f3f 6746 7f3f a37b 7f3f 57b7 7f3f
000000a0: 7686 7f3f 5c24 803f 74b2 803f fb74 7f3f
000000b0: f4d0 7e3f 4512 7f3f 18f7 7f3f 014a 803f
000000c0: 0a08 803f 1e3f 803f bf74 7f3f 4579 803f
000000d0: 6f82 803f a828 803f 157e 7f3f 5683 803f
000000e0: fcf7 7f3f 2b4e 7e3f 1f2f 803f 7fef 7f3f
000000f0: 0399 7f3f 5d43 7f3f 4dc3 7f3f a817 803f

bias f4 [64]
0.0076300525 0.005656383 -0.0013406667 -0.0064649684 -0.0064722467 0.0023431405 0.006609597 -0.006288889
0.0031833935 -0.0026646345 -0.0073217433 0.0047851824 0.008936127 0.0028454815 0.0029955404 -0.0065311873
-0.0055518756 0.0007621286 0.0017135226 -0.003124505 -0.0029112604 0.0044642775 0.00061872014 0.0033459165
0.003408436 -0.0023360327 0.00721127 0.0004403457 0.0005745717 -0.0074095735 0.0023644806 -0.0069921245
-0.0020478398 -0.0030767974 -0.0033937995 -0.0003487115 0.0112615945 -0.0045800884 -0.003650555 -0.0015471134
-0.0031595347 0.0028708125 0.00094823475 -0.0038364755 -0.006960983 0.0024071569 -0.0093076 -0.0010607628
0.003660007 0.008074101 -0.0041665644 0.0074062133 0.00071535923 -0.0008213101 0.0009759442 0.00559236
-0.00026483415 0.0022339355 -0.0023292282 0.0023850242 -0.00024586904 0.0005745982 0.0008903063 -0.000406597
00000000: 8505 fa3b 2e59 b93b 4fb9 afba 16d8 d3bb
00000010: 2415 d4bb 608f 193b 5195 d83b 0613 cebb
00000020: 7ba0 503b 26a1 2ebb 3ceb efbb 05cd 9c3b
00000030: d568 123c 427b 3a3b d450 443b 9203 d6bb
00000040: 82ec b5bb 96c9 473a 4798 e03a 7fc4 4cbb
00000050: d8ca 3ebb 1349 923b 9b31 223a 2a47 5b3b
00000060: 1160 5f3b 2018 19bb 844c ec3b 33de e639
00000070: db9e 163a 02cc f2bb 67f5 1a3b 311e e5bb
00000080: 0d35 06bb 18a4 49bb 826a 5ebb 44d3 b6b9
00000090: 8d82 383c 9114 96bb 263e 6fbb 83c8 caba
000000a0: 3210 4fbb 3e24 3c3b f592 783a 616d 7bbb
000000b0: f518 e4bb 64c1 1d3b e77e 18bc 4b09 8bba
000000c0: badc 6f3b 3c49 043c ad87 88bb d2af f23b
000000d0: f286 3b3a 304d 57ba 82d6 7f3a 1e40 b73b
000000e0: 70d9 8ab9 3867 123b f7a5 18bb 114e 1c3b
000000f0: fce7 80b9 a2a0 163a 7263 693a 872c d5b9

running_mean f4 [64]
0.67667353 -0.45663935 -0.6102283 0.37256756 -0.54190505 -0.723027 0.16681808 0.17776184
0.56834567 -0.17273666 -0.26615715 -0.45613882 -0.022468768 -0.18925439 0.45692712 0.20320937
-0.2850512 -0.010292512 -0.30427784 -0.6032986 -0.18848538 0.6233078 0.06296539 0.027204705
0.2028428 0.11709099 -0.015128773 -0.2873718 0.1509618 -0.4175607 0.40357053 0.0449325
-0.628591 -0.12810929 -0.10652974 0.11570228 -0.15423246 0.07991054 0.5995055 -0.16210979
0.21530773 0.34401104 -0.057371303 -0.0020197465 -0.13032009 -0.35607618 -0.23846173 -0.01787335
0.4921006 0.70683944 0.21254444 0.3022753 0.0053275237 0.30707172 -0.18837838 -0.5226255
-0.40454465 -0.6105676 0.15108566 -0.82010716 -0.39420193 0.36206594 -0.23023897 -0.03183217
00000000: 7a3a 2d3f a2cc e9be ec37 1cbf 2dc1 be3e
00000010: 4aba 0abf 4c18 39bf 5cd2 2a3e 3307 363e
00000020: 1a7f 113f e1e1 30be c045 88be 078b e9be
00000030: 6c10 b8bc e7cb 41be 5af2 e93e 1e16 503e
00000040: 3bf2 91be eda1 28bc 4eca 9bbe c771 1abf
00000050: 5002 41be 1a91 1f3f 00f4 803d 67dc de3c
00000060: 06b6 4f3e 67cd ef3d acde 77bc 6622 93be
00000070: bb95 1a3e 84ca d5be cca0 ce3e 240b 383d
00000080: 57eb 20bf 152f 03be 442c dabd 51f5 ec3d
00000090: 1def 1dbe 23a8 a33d 3179 193f 1c00 26be
000000a0: a179 5c3e 3722 b03e 2cfe 6abd b95d 04bb
000000b0: a172 05be 9e4f b6be 502f 74be 226b 92bc
000000c0: 9cf4 fb3e 6ef3 343f 40a5 593e d4c3 9a3e
000000d0: 8292 ae3b 8138 9d3e 43e6 40be c9ca 05bf
000000e0: 7a20 cfbe 294e 1cbf 33b6 1a3e 8bf2 51bf
000000f0: d6d4 c9be b560 b93e c4c3 6bbe 7362 02bd

running_var f4 [64]
0.1403783 0.18517914 0.23138419 0.4332643 0.13482761 0.3818277 0.034905758 0.065412655
0.66427 0.13526507 0.1501615 0.08927212 0.14025103 0.15553278 0.08486122 0.13945474
0.2621608 0.09211047 0.06778489 0.15490493 0.10913722 0.6578085 0.08241967 0.12326755
0.062675126 0.11580069 0.08204692 0.24750142 1.4678752 0.10209282 0.1878215 0.37892434
0.20736721 0.30750638 0.14556165 0.05200837 0.08832589 0.25913808 0.4253793 0.103631295
0.123106 0.09000579 0.067110986 0.3007506 0.25800878 0.2474641 0.08444338 0.056747377
0.17253548 0.2884718 0.1621379 0.41046852 0.05917573 0.39428207 0.31703037 0.23622994
0.11714558 0.25978506 0.1543575 0.22779025 0.096126206 0.22991887 0.58707196 0.39601916
00000000: 54bf 0f3e 9a9f 3d3e faef 6c3e d1d4 dd3e
00000010: 4010 0a3e ec7e c33e 57f9 0e3d 12f7 853d
00000020: 990d 2a3f ed82 0a3e f0c3 193e 4dd4 b63d
00000030: f79d 0f3e fc43 1f3e b8cb ad3d 39cd 0e3e
00000040: f139 863e 6aa4 bc3d ced2 8a3d 669f 1e3e
00000050: 5683 df3d 2366 283f a5cb a83d b273 fc3d
00000060: d15b 803d ea28 ed3d 3708 a83d 0371 7d3e
00000070: 56e3 bb3f 0a16 d13d 4754 403e 5f02 c23e
00000080: 1258 543e 7a71 9d3e 1d0e 153e bb06 553d
00000090: 34e4 b43d bfad 843e 51cb d93e a53c d43d
000000a0: 001f fc3d f554 b83d 7c71 893d fcfb 993e
000000b0: ba19 843e 3b67 7d3e a7f0 ac3d f06f 683d
000000c0: 24ad 303e 93b2 933e 7a07 263e ee28 d23e
000000d0: 4062 723d 57df c93e ce51 a23e 43e6 713e
000000e0: 06ea ef3d 8c02 853e e40f 1e3e d941 693e
000000f0: d1dd c43d da6f 6b3e 594a 163f 06c3 ca3e

weight f4 [64, 64, 3, 3]
-0.03593448 -0.04212478 -0.014589892 0.031701546 -0.04218029 0.013695463 0.029421613 -0.0012072526
0.013294249 0.026819982 0.022581395 -0.023837566 -0.04260644 -0.0071202596 -0.0064379387 -0.0119466055
0.038451247 0.031979993 0.0055098752 -0.011678526 0.011923688 -0.040407993 0.022106787 0.021552345
0.0046872455 -0.014672325 -0.0058898847 -0.030143855 -0.02257013 -0.025150612 0.027613243 0.035201076
0.014453891 0.013401356 0.030224113 0.02656937 -0.026838886 0.006716576 0.024910787 -0.029571474
0.03751902 0.0012112518 0.044730306 0.033747748 0.0064126183 0.019323228 -0.011430976 0.02752494
0.03662004 0.03747245 -0.03400878 -0.022052728 -0.034510657 -0.025311355 0.009526534 0.025051469
0.012115126 0.0048342254 -0.030276611 0.014750046 0.0071075326 0.019566692 0.021004768 -0.03172118
0.023920711 -0.034214664 0.018768411 0.017622929 -0.027299808 -0.042527314 0.0069336733 0.012336064
-0.025788765 -0.021719897 -0.009306256 0.013749756 -0.014626054 0.017134082 0.024665 -0.03018915
0.0015683668 0.034833994 -0.024885895 0.035473097 -0.01571352 -3.129573e-05 0.017722083 0.011773606
-0.026906164 0.024559457 -0.036518775 0.0036041532 0.031395625 -0.0094004115 0.016619947 -0.022844201
0.011255041 -0.0023952657 0.026359787 0.006112158 -0.03307134 0.032611534 -0.028351728 -0.014338717
-0.020244416 -0.03687029 0.010993498 -0.030128606 0.030934697 0.0027095724 -0.00567774 0.028101118
0.01198711 -0.010741025 -0.008084244 0.0073546264 -0.0001607023 0.041697696 -0.0052663153 0.020464746
-0.014332175 0.024827626 -0.041260596 -0.029914156 -0.00051331334 0.009750176 -0.025483163 -0.026156167
-0.010549473 0.020556368 0.010789256 -0.022907956 0.030240485 -0.010038165 0.0050509116 -0.011090254
0.025383098 0.021373425 0.05175917 -0.029258031 0.032072894 -0.024748173 -0.008558214 -0.008671087
0.041939244 -0.04062812 -0.03939985 0.022264084 -0.014642901 -0.018212385 -0.014276484 0.021799697
-0.03309323 -0.030082736 0.018141331 -0.024180427 0.007336134 -0.006413968 0.025620082 -0.040375628
0.036485214 0.03968725 -0.021211496 0.013054949 0.02063784 -0.039861012 -0.008793105 -0.0032914565
0.023598213 -0.025751172 -0.012637156 -0.018731844 -0.0049123513 0.036495607 -0.0039039424 0.009969299
-0.01643969 -0.005814339 0.02546426 0.032243643 0.001230475 0.0355119 0.018283315 0.018293802
-0.02456685 0.014282663 -0.007974123 -0.034911953 -0.03616519 -0.027064737 -0.01680073 -0.002201057
-0.007310022 -0.028010601 0.009473207 -0.02059511 0.029636893 -0.013789157 0.00588237 0.029481085
0.014088215 0.026486587 0.017370673 -0.009001496 0.03375056 0.0183903 0.02963506 0.0411958
0.01853208 0.019096633 0.042680718 -0.041655578 0.0039013964 0.012118328 -0.03127089 0.013045918
0.0025937702 0.009302177 -0.006912388 0.038776945 -0.042123437 -0.008909809 -0.02050706 -0.015251625
-0.012346665 0.0029763798 0.01011552 -0.015345879 0.041484714 0.026381548 0.024088476 -0.023598794
0.015737442 -0.034942206 -0.008766751 0.0030539383 0.02267173 -0.019853374 -0.03431047 0.029218432
0.028444089 0.04174639 -0.0035259007 -0.035526928 0.018450895 -0.0025362556 0.0061984793 -0.04099797
0.0011918674 0.024121374 0.013404057 -0.038125858 0.0058397595 -0.038615696 0.0049222778 0.0057876897
00000000: 0930 13bd 098b 2cbd 710a 6fbc 7bd9 013d
00000010: 3dc5 2cbd ef62 603c 9805 f13c ad3c 9eba
00000020: 1fd0 593c 94b5 db3c 9efc b83c 0047 c3bc
00000030: 1784 2ebd 1151 e9bb 58f5 d2bb b2bb 43bc
00000040: 0e7f 1d3d 74fd 023d 2f8c b43b 4a57 3fbc
00000050: 935b 433c da82 25bd 4b19 b53c 8b8e b03c
00000060: 7797 993b 3164 70bc efff c0bb 3ff0 f6bc
00000070: fee4 b8bc a808 cebc 2b35 e23c 012f 103d
00000080: 03d0 6c3c 5c91 5b3c 8f98 f73c 02a8 d93c
00000090: 39dd dbbc b916 dc3b b511 cc3c e03f f2bc
000000a0: 8bad 193d dec2 9e3a 2037 373d 143b 0a3d
000000b0: f120 d23b bf4b 9e3c fd48 3bbc fc7b e13c
000000c0: e5fe 153d b67c 193d ca4c 0bbd eca7 b4bc
000000d0: 0c5b 0dbd c259 cfbc 2e15 1c3c bd38 cd3c
000000e0: 857e 463c 6c68 9e3b a806 f8bc 2daa 713c
000000f0: 4ee6 e83b 544a a03c 3112 ac3c 11ee 01bd
00000100: 5ef5 c33c ad24 0cbd 36c0 993c f65d 903c
00000110: d9a3 dfbc 1f31 2ebd de33 e33b 341d 4a3c
00000120: f642 d3bc eded b1bc 4479 18bc a846 613c
00000130: 1ea2 6fbc c65c 8c3c 410e ca3c 3c4f f7bc
00000140: a891 cd3a 17ae 0e3d 81dd cbbc 3d4c 113d
00000150: a4b9 80bc 8943 03b8 e72d 913c 15e6 403c
00000160: 516a dcbc ea30 c93c b694 15bd a833 6c3b
00000170: b398 003d 2f04 1abc 8e26 883c c323 bbbc
00000180: 1067 383c e4f9 1cbb 7bf0 d73c 7f48 c83b
00000190: d075 07bd ac93 053d e241 e8bc f0ec 6abc
000001a0: 9ed7 a5bc 4d05 17bd 131e 343c 44d0 f6bc
000001b0: c36a fd3c 1593 313b 560c babb 5134 e63c
000001c0: 9565 443c 20fb 2fbc c773 04bc 14ff f03b
000001d0: 3282 28b9 34cb 2a3d 0e91 acbb afa5 a73c
000001e0: 80d1 6abc 4e63 cb3c df00 29bd 880e f5bc
000001f0: e08f 06ba 34bf 1f3c 11c2 d0bc 7545 d6bc
00000200: b2d7 2cbc d465 a83c 6bc5 303c 77a9 bbbc
00000210: e5ba f73c 1e77 24bc 1e82 a53b e6b3 35bc
00000220: 37f0 cf3c 5217 af3c 6c01 543d 8aae efbc
00000230: de5e 033d aebc cabc c037 0cbc 2d11 0ebc
00000240: 7cc8 2b3d ac69 26bd bd61 21bd 2b63 b63c
00000250: c7e8 6fbc 2432 95bc eae7 69bc 4795 b23c
00000260: c48c 07bd 1270 f6bc 219d 943c 0816 c6bc
00000270: f463 f03b 432c d2bb 35e1 d13c ea60 25bd
00000280: 8571 153d 198f 223d bbc3 adbc 6de4 553c
00000290: b010 a93c 4d45 23bd f510 10bc 7ab5 57bb
000002a0: 0a51 c13c 1ff4 d2bc 130c 4fbc 8673 99bc
000002b0: caf7 a0bb 6b7c 153d 49d9 7fbb 4556 233c
000002c0: 87ac 86bc 3686 bebb 6c9a d03c e911 043d
000002d0: e447 a13a ed74 113d e4c6 953c e2dc 953c
000002e0: 6b40 c9bc d501 6a3c e5a5 02bc d6ff 0ebd
000002f0: f321 14bd deb6 ddbc afa1 89bc 9c3f 10bb
00000300: e988 efbb 7d76 e5bc 8335 1b3c 13b7 a8bc
00000310: 12c9 f23c ebeb 61bc e5c0 c03b 5182 f13c
00000320: 42d2 663c 66fa d83c f14c 8e3c 037b 13bc
00000330: 073e 0a3d 41a7 963c 3ac5 f23c edbc 283d
00000340: 97d0 973c 8b70 9c3c fad1 2e3d 0a9f 2abd
00000350: 92ae 7f3b f48b 463c e815 00bd 8cbe 553c
00000360: 3efc 293b 2868 183c 5081 e2bb 93d4 1e3d
00000370: a089 2cbd 73fa 11bc 6cfe a7bc f4e1 79bc
00000380: ab49 4abc 5e0f 433b 91bb 253c 486d 7bbc
00000390: e0eb 293d 1e1e d83c 3255 c53c 4252 c1bc
000003a0: cfeb 803c 8f1f 0fbd 6ba2 0fbc 9524 483b
000003b0: 10ba b93c 8ba3 a2bc 2389 0cbd 7e5b ef3c
000003c0: 9403 e93c 43fe 2a3d cc12 67bb af84 11bd
000003d0: 5526 973c 4f37 26bb 9d1c cb3b 7ded 27bd
000003e0: 6f38 9c3a 309a c53c b19c 5b3c dc29 1cbd
000003f0: 745b bf3b 7e2b 1ebd 0f4b a13b a9a6 bd3b

bias f4 [64]
0.026643233 -0.018881274 0.0048564347 -0.021150049 0.00045482162 0.033777513 0.03806101 -0.011117136
-0.007250658 0.022659019 -0.017109677 0.017410973 -0.015119677 -0.018668808 0.029841814 -0.0032901186
0.010292316 0.005586582 -0.03436308 -0.018032553 0.012461595 -0.019601896 -0.018463993 -0.0023254224
-0.018680867 0.019163381 0.037751056 0.022258513 0.000809961 -0.0018739675 -0.016443102 -0.028583398
0.028753182 0.028336797 -0.022294715 -0.04156411 -0.019190233 -0.018587356 0.010158109 -0.022219012
0.03642234 -0.023265863 -0.023563977 -0.0068802214 0.00088575593 0.037539314 -0.020728387 0.038711965
0.016432755 0.0076041333 -0.03272497 0.03533486 -0.0313105 -0.03036565 0.011239375 -0.02279468
-0.023638306 -0.005181387 0.032252993 0.04002427 -0.036070436 -0.0031397194 0.013765961 -0.022503138
00000000: e942 da3c e7ac 9abc ba22 9f3b de42 adbc
00000010: 2075 ee39 4a5a 0a3d dde5 1b3d a624 36bc
00000020: ed96 edbb 689f b93c 9829 8cbc 75a1 8e3c
00000030: 86b8 77bc 54ef 98bc d276 f43c 089f 57bb
00000040: 1aa1 283c a50f b73b 4dc0 0cbd 01b9 93bc
00000050: b82b 4c3c 2894 a0bc cd41 97bc 1d66 18bb
00000060: 9e08 99bc 86fc 9c3c daa0 1a3d 7c57 b63c
00000070: 9053 543a ea9f f5ba afb3 86bc bb27 eabc
00000080: cb8b eb3c 9222 e83c 68a3 b6bc 213f 2abd
00000090: d634 9dbc 8344 98bc 326e 263c a504 b6bc
000000a0: 972f 153d 0d98 bebc 3e09 c1bc 7b73 e1bb
000000b0: 1332 683a d3c2 193d 94ce a9bc 7090 1e3d
000000c0: fc9d 863c 182c f93b 9e0a 06bd 49bb 103d
000000d0: 703f 00bd 62c1 f8bc 5b25 383c e9bb babc
000000e0: 1fa5 c1bc a0c8 a9bb b71b 043d 7df0 233d
000000f0: 98be 13bd c0c3 4dbb a08a 613c 8058 b8bc

weight f4 [64]
1.0065017 1.0004294 1.0088245 1.0030818 1.0049335 1.0042199 1.0001309 1.0011047
1.003487 1.0054369 0.9924163 1.0130974 1.0016118 1.0020751 1.0079541 0.9999751
1.008475 1.0023603 1.0012817 0.9955418 1.0103606 1.0012549 0.9999272 1.0125729
1.0070486 1.0057266 1.0086665 1.0052532 0.9995235 1.0042902 0.9948788 1.003316
1.0037212 1.0019176 1.010469 1.0072682 0.99747485 0.9944848 0.9992834 1.0102733
0.99551374 1.0100766 1.0006447 0.99941486 0.9999043 1.0055828 1.0006142 1.0090356
0.99892235 1.0096289 1.00966 1.0026351 1.0093032 1.0035659 1.0228499 1.0064932
1.0090129 0.99658865 0.9991304 1.0035791 0.9974565 1.0122118 0.9992215 1.0051652
00000000: 0cd5 803f 120e 803f 2921 813f fc64 803f
00000010: a9a1 803f 478a 803f 4a04 803f 3324 803f
00000020: 4372 803f 28b2 803f ff0e 7e3f 2dad 813f
00000030: d134 803f ff43 803f a404 813f 5efe 7f3f
00000040: b515 813f 584d 803f 002a 803f d4db 7e3f
00000050: 7f53 813f 1f29 803f 3bfb 7f3f fd9b 813f
00000060: f8e6 803f a6bb 803f fc1b 813f 23ac 803f
00000070: c6e0 7f3f 958c 803f 61b0 7e3f a96c 803f
00000080: f079 803f d63e 803f 0c57 813f 2aee 803f
00000090: 835a 7f3f 8e96 7e3f 09d1 7f3f a350 813f
000000a0: fdd9 7e3f 314a 813f 2015 803f a7d9 7f3f
000000b0: baf9 7f3f f0b6 803f 2014 803f 1428 813f
000000c0: 60b9 7f3f 853b 813f 8a3c 813f 5956 803f
000000d0: d930 813f d974 803f bfec 823f c5d4 803f
000000e0: 5627 813f 6f20 7f3f 03c7 7f3f 4875 803f
000000f0: 4f59 7f3f 2890 813f fbcc 7f3f 41a9 803f

bias f4 [64]
0.00083133427 -0.0009827658 0.0019326428 -0.005871007 -0.0015990039 -1.5753709e-06 -0.0017882352 -0.0033910389
0.001896196 0.001974449 -0.008050067 -0.0030441284 -0.003677822 -0.0013615934 0.0055790166 -0.001103317
0.0018224509 -9.521368e-05 0.0010864832 -0.0070250994 0.002204267 -0.0032671038 0.0013646687 0.0033065288
0.0008973812 0.003856614 0.0034110271 -0.0014624385 -0.0016309683 -0.0018879483 -0.0071466113 0.0010315247
0.00033084673 -0.001910161 0.0030794858 0.0017662514 -0.0015430158 -0.006680921 -0.0012311926 0.0045352015
0.00017290223 0.0056758313 0.0024670009 -0.0060693203 -0.0014301589 -0.0031100835 0.00034593846 0.0024730973
-0.0023571432 0.0010982793 0.0054559894 0.0017975696 0.0058136457 0.0017689803 0.004023339 0.00092618866
0.0056248596 -0.0054356065 0.0005306883 0.0016735359 -0.0003753336 -0.0003035475 -0.00096995046 -0.0033391733
00000000: e6ed 593a 26d0 80ba bb50 fd3a 9461 c0bb
00000010: ab95 d1ba 5571 d3b5 3763 eaba 313c 5ebb
00000020: c889 f83a c265 013b 6ee4 03bc 0080 47bb
00000030: 9d07 71bb 7e77 b2ba 2fd0 b63b 2d9d 90ba
00000040: 4edf ee3a 75ad c7b8 5468 8e3a ce32 e6bb
00000050: 7775 103b e81c 56bb afde b23a 59b2 583b
00000060: 3c3e 6b3a 3fbf 7c3b 8a8b 5f3b 4baf bfba
00000070: 37c6 d5ba 0875 f7ba 1f2e eabb 3a34 873a
00000080: 7f75 ad39 5e5e faba 33d1 493b 9081 e73a
00000090: 053f caba a1eb dabb f85f a1ba 079c 943b
000000a0: 174d 3539 53fc b93b 68ad 213b 26e1 c6bb
000000b0: 2b74 bbba 8bd2 4bbb 135f b539 b013 223b
000000c0: 4d7a 1abb 23f4 8f3a 28c8 b23b 6d9c eb3a
000000d0: 6580 be3b 21dd e73a 37d6 833b 78cb 723a
000000e0: be50 b83b 2c1d b2bb e41d 0b3a 8c5a db3a
000000f0: 6cc8 c4b9 7525 9fb9 4644 7eba 08d6 5abb

running_mean f4 [64]
-0.3302808 -0.31235978 -0.13859642 -0.185444 -0.19375506 0.41305566 0.61679465 0.5260438
-1.4350408 0.36524814 -0.42190075 -0.08328809 -0.03416883 -0.70319694 -0.9420112 -0.3100142
0.37128067 0.2233512 0.6705236 -0.8897403 -0.06064613 -0.45555383 -0.6417742 -0.14456257
0.24279849 0.46786276 0.2939362 -0.42180035 -0.6184356 -0.57104266 -0.59754336 -1.3811754
-0.50392985 -0.043620035 -0.6760404 -0.22466403 0.49980533 0.8091948 -1.0263114 -0.0940787
-0.07604551 -0.0038111804 0.33127642 -0.4852151 0.44766194 -0.17529 -0.1345943 -0.09239778
-0.43313903 0.052831892 -0.30335146 -0.21712069 0.13967039 -0.8770936 0.44585782 -0.3263872
0.3192027 0.12385734 -0.8657055 -1.5689899 0.9044791 0.79426914 0.6167035 0.44226718
00000000: 911a a9be 9fed 9fbe 38ec 0dbe 08e5 3dbe
00000010: ba67 46be 087c d33e 41e6 1d3f ceaa 063f
00000020: 6baf b7bf ce01 bb3e 6003 d8be f292 aabd
00000030: 9df4 0bbd b704 34bf a527 71bf 2eba 9ebe
00000040: 8018 be3e 2db6 643e 6fa7 2b3f 05c6 63bf
00000050: 1468 78bd 5a3e e9be 504b 24bf 3608 14be
00000060: 2ba0 783e b58b ef3e ce7e 963e 37f6 d7be
00000070: cc51 1ebf da2f 12bf 9af8 18bf 5bca b0bf
00000080: 8c01 01bf ecaa 32bd fc10 2dbf 540e 66be
00000090: 7ce6 ff3e 6427 4f3f 2c5e 83bf 55ac c0bd
000000a0: c0bd 9bbd ffc4 79bb 109d a93e 1d6e f8be
000000b0: f233 e53e 397f 33be 17d3 09be 0c3b bdbd
000000c0: 66c4 ddbe 4166 583d e250 9bbe e354 5ebe
000000d0: c105 0f3e 3589 60bf 7a47 e43e 391c a7be
000000e0: 896e a33e eba8 fd3d e09e 5dbf a9d4 c8bf
000000f0: f18b 673f 3955 4b3f 48e0 1d3f d870 e23e

running_var f4 [64]
0.20108797 0.3442972 0.2283309 0.17200527 0.23309392 0.24265088 0.380944 0.24065812
0.50722265 0.3489162 0.25316465 0.2166551 0.2206811 0.23641865 0.18706155 0.24012886
0.13004598 0.21987766 0.1967793 0.35509312 0.21173671 0.33092603 0.25414464 0.22496736
0.2480527 0.25416896 0.22166176 0.35457364 0.33164623 0.22723758 0.31657156 0.490304
0.23905836 0.2109038 0.3185941 0.22861996 0.30613756 0.68125623 0.43612435 0.12843491
0.48109904 0.21675022 0.27499086 0.45344606 0.33778125 0.18964449 0.1687579 0.16469444
0.21938568 0.14030983 0.16569403 0.2011336 0.20855002 0.3256356 0.19762617 0.25681522
0.13049667 0.16789603 0.25035056 0.7851869 0.46334538 0.7666381 0.4260119 0.427879
00000000: 01ea 4d3e b947 b03e 93cf 693e 2622 303e
00000010: 2cb0 6e3e 7979 783e 180b c33e 156f 763e
00000020: 58d9 013f 25a5 b23e cc9e 813e d6da 5d3e
00000030: 3afa 613e bb17 723e 108d 3f3e 57e4 753e
00000040: c62a 053e 9c27 613e 8380 493e c4ce b53e
00000050: 82d1 583e 236f a93e 3f1f 823e d85d 663e
00000060: 8701 7e3e 6f22 823e 4dfb 623e ad8a b53e
00000070: 89cd a93e f8b0 683e ab15 a23e 2009 fb3e
00000080: b7cb 743e 2af7 573e c41e a33e 5a1b 6a3e
00000090: 10be 9c3e cf66 2e3f b14b df3e 7184 033e
000000a0: 9d52 f63e c5f3 5d3e 9acb 8c3e 152a e83e
000000b0: aaf1 ac3e 2a32 423e dfce 2c3e a9a5 283e
000000c0: a4a6 603e 61ad 0f3e b2ab 293e f7f5 4d3e
000000d0: 238e 553e b6b9 a63e 845e 4a3e 497d 833e
000000e0: eba0 053e f0ec 2b3e f32d 803e 0202 493f
000000f0: 9b3b ed3e 6542 443f 3b1e da3e f512 db3e

weight f4 [32, 576]
-0.04411515 0.057765797 -0.0128815705 0.10620522 -0.077235535 -0.035072666 0.06941346 0.03679375
0.0155106755 -0.016276626 -0.07747312 0.0772593 -0.0066805417 -0.0979229 -0.03576106 0.045489088
-0.072861366 -0.04328221 7.445798e-05 -0.09211722 -0.008217506 0.07749283 -0.014714495 -0.014433946
-0.034611 0.054243322 0.027262364 -0.08924475 0.05616361 0.055613067 0.05427691 -0.013699202
-0.035091516 0.006717577 0.07321239 -0.041729573 -0.06323593 -0.028448334 -0.09571017 -0.025942782
-0.010220745 -0.019488305 -0.081946254 0.041553553 0.0017020131 0.08623702 0.09157847 0.06082677
-0.0065069147 0.08449444 0.013284525 0.017972007 -0.08571586 0.012672898 -0.022892315 0.045282323
-0.04541668 0.066055626 0.036672007 -0.09588563 0.064278565 -0.02710031 0.047057033 0.085971676
0.019165171 -0.04405669 -0.009307289 -0.023629813 0.035737827 -0.071010195 0.054444224 0.07521402
0.009511242 0.06288966 -0.059063397 -0.09352854 0.09720228 -0.065512106 -0.0037125566 0.023418497
-0.091054626 0.07297444 0.014124727 0.03208148 -0.050362486 -0.08300782 -0.058704395 -0.0063637584
0.067931235 -0.07432424 0.016557863 0.039917007 -0.042856954 -0.02573519 -0.029661044 -0.013862213
-0.033418015 -0.08070246 -0.014121744 -0.053616676 -0.013601547 -0.09436491 -0.043799575 -0.010407846
-0.08669642 -0.038686663 0.080254436 -0.06255208 -0.023992594 0.08051731 0.02884154 -0.044130456
0.1051493 -0.09174936 -0.038431246 -0.021040196 0.011189631 -0.053084772 0.061629128 0.049006917
0.04925474 0.09962709 0.07239814 -0.08132313 -0.088222034 0.09342346 0.06341829 -0.044823486
-0.0051360386 0.027902525 -0.032136 0.0047553047 -0.01631935 0.07769887 0.075903796 0.05921941
-0.0012113563 -0.09889725 0.017039862 -0.043393873 -0.08043361 0.0028062037 0.06547336 0.06591956
-0.025594044 -0.07659185 0.04042919 -0.05062865 0.011354631 0.03316259 0.09116565 -0.03527009
0.076135255 -0.08874148 -0.031308386 -0.020358391 -0.053240206 0.010150482 -0.0127609745 0.08397631
0.004037667 -0.0709835 -0.06904905 -0.0668595 -0.08767575 -0.022635415 -0.013798904 -0.078653276
0.091228284 -0.07959034 0.0003209468 0.056660898 0.022453155 0.00718117 -0.05429302 -0.0021642528
0.06032864 0.040302403 0.09047982 0.08828624 -0.09020414 -0.06566965 -0.0014512145 0.08241241
0.026291287 -0.057323854 -0.029838534 0.055667907 0.07156763 0.008666324 -0.04441759 0.081298664
-0.05052476 0.08545478 -0.06258458 0.09594343 -0.06299876 0.04667036 -0.023545545 -0.051813945
-0.08901803 0.026008965 -0.09150972 0.0742436 0.08512999 0.08791921 -0.07227887 0.020642193
-0.03764367 -0.077119686 -0.07935106 -0.0295663 0.0049115685 -0.017478392 -0.102158874 0.0050774994
-0.030010238 -0.02782101 -0.03609747 -0.05695816 -0.017747518 0.0041169934 0.0051180804 0.0029754932
0.07768149 0.03842254 0.006088685 0.058423694 0.023885556 0.01513938 -0.09695517 -0.0011603261
-0.015324579 -0.018489 -0.015562712 -0.065685876 -0.09064461 -0.056702275 -0.006236283 -0.053743657
-0.06054146 -0.0705248 -0.022307334 0.03645128 0.0022705132 0.07570439 -0.045046695 0.055839486
-0.0071308687 0.045959067 0.05391106 0.056528687 -0.0012484995 0.011777995 -0.04608137 -0.022717936
00000000: 16b2 34bd d49b 6c3d 390d 53bc 1f82 d93d
00000010: aa2d 9ebd 5ba8 0fbd a528 8e3d 0bb5 163d
00000020: 7d20 7e3c 8f56 85bc 3aaa 9ebd 203a 9e3d
00000030: 72e8 dabb cd8b c8bd 307a 12bd c452 3a3d
00000040: 5738 95bd b048 31bd 5326 9c38 f4a7 bcbd
00000050: b8a2 06bc 90b4 9e3d 1115 71bc 5c7c 6cbc
00000060: 44c4 0dbd 3f2e 5e3d 5255 df3c f4c5 b6bd
00000070: d00b 663d 87ca 633d 7751 5e3d 9e72 60bc
00000080: 1fbc 0fbd 1f1f dc3b 61f0 953d a1ec 2abd
00000090: d781 81bd 7b0c e9bc b203 c4bd f585 d4bc
000000a0: e974 27bc f0a5 9fbc 70d3 a7bd 0f34 2a3d
000000b0: 1516 df3a 099d b03d 7e8d bb3d 7e25 793d
000000c0: f537 d5bb 6c0b ad3d 56a7 593c 083a 933c
000000d0: cc8b afbd fda1 4f3c aa88 bbbc f579 393d
000000e0: d706 3abd 2c48 873d 6335 163d af5f c4bd
000000f0: 7ba4 833d 7801 debc e0be 403d eb11 b03d
00000100: 4700 9d3c ca74 34bd 997d 18bc 4f93 c1bc
00000110: d461 123d cb6d 91bd e800 5f3d cf09 9a3d
00000120: 0ad5 1b3c 4bcc 803d 76ec 71bd e48b bfbd
00000130: fd11 c73d 362b 86bd 5d4e 73bb 26d8 bf3c
00000140: d97a babd a073 953d 666b 673c df67 033d
00000150: e548 4ebd 0100 aabd 0574 70bd 1387 d0bb
00000160: 881f 8b3d 4f37 98bd 5ba4 873c 0480 233d
00000170: c68a 2fbd 9bd2 d2bc b8fb f2bc 561e 63bc
00000180: 54e1 08bd 5547 a5bd e35e 67bc 299d 5bbd
00000190: 06d9 5ebc 6442 c1bd 2f67 33bd ac85 2abc
000001a0: e58d b1bd e875 1ebd 705c a43d 4e1b 80bd
000001b0: 1e8c c4bc 42e6 a43d 1845 ec3c 23c2 34bd
000001c0: 8458 d73d 17e7 bbbd 156a 1dbd 7d5c acbc
000001d0: b754 373c 6b6f 59bd d36e 7c3d 7abb 483d
000001e0: 57bf 493d 4a09 cc3d 7a45 943d be8c a6bd
000001f0: c1ad b4bd cd54 bf3d 73e1 813d d598 37bd
00000200: 374c a8bb d693 e43c 0aa1 03bd 63d2 9b3b
00000210: 28b0 85bc 9620 9f3d 7373 9b3d 0d90 723d
00000220: 5fc6 9eba a48a cabd 2e97 8b3c c6bd 31bd
00000230: 60ba a4bd 49e8 373b e616 863d d600 873d
00000240: 9aaa d1bc 30dc 9cbd 1499 253d fd5f 4fbd
00000250: c608 3a3c 7fd5 073d 0eb5 ba3d 5f77 10bd
00000260: cdec 9b3d 18be b5bd 393d 00bd a4c6 a6bc
00000270: 6712 5abd 354e 263c 6813 51bc c6fb ab3d
00000280: 684e 843b cc5f 91bd 9769 8dbd a2ed 88bd
00000290: 588f b3bd e86d b9bc cc14 62bc f814 a1bd
000002a0: e5d5 ba3d 4300 a3bd c044 a839 4215 683d
000002b0: aeef b73c 0550 eb3b 5c62 5ebd 23d6 0dbb
000002c0: 2a1b 773d 2214 253d 7c4d b93d 6bcf b43d
000002d0: f3bc b8bd cf7d 86bd ae36 beba d6c7 a83d
000002e0: d360 d73c 6bcc 6abd f16f f4bc 0804 643d
000002f0: 0d92 923d 33fd 0d3c 38ef 35bd ea7f a63d
00000300: 0df3 4ebd ea02 af3d 582c 80bd fd7d c43d
00000310: 7e05 81bd 6b29 3f3d 96e2 c0bc dc3a 54bd
00000320: 164f b6bd c110 d53c 7369 bbbd 070d 983d
00000330: a258 ae3d fd0e b43d f206 94bd d119 a93c
00000340: 4030 1abd edf0 9dbd cf82 a2bd 0635 f2bc
00000350: 39f1 a03b d82e 8fbc ac38 d1bd 2761 a63b
00000360: 08d8 f5bc e3e8 e3bc f1da 13bd f64c 69bd
00000370: 3e63 91bc d8e7 863b 92b5 a73b 7e00 433b
00000380: 7917 9f3d f460 1d3d 9783 c73b af4d 6f3d
00000390: a4ab c33c 290b 783c 6f90 c6bd 1516 98ba
000003a0: f113 7bbc 3e76 97bc bffa 7ebc 5186 86bd
000003b0: e2a3 b9bd a540 68bd bc59 ccbb 4f22 5cbd
000003c0: 52fa 77bd 4e6f 90bd dfbd b6bc f04d 153d
000003d0: e4cc 143b e70a 9b3d e282 38bd f2b7 643d
000003e0: 10aa e9bb 933f 3c3d d8d1 5c3d a08a 673d
000003f0: b1a4 a3ba 7ef8 403c d2bf 3cbd f71a babc

bias f4 [32]
0.0035942218 -0.0022460446 -0.0040470925 -0.0028259393 0.0005807703 8.8095345e-05 0.00026574658 0.0026047572
0.0032218653 -0.0007883574 0.0011503003 -0.0013253164 -0.00045582463 0.006197755 -0.0012161747 -0.0037954533
-0.00018603212 -0.0010652604 -0.002980418 -0.0030410362 -0.0048645553 -0.0017636947 -0.0034359023 0.001958294
-0.0024010518 2.8398052e-05 0.0021793295 -0.0025725062 0.0065092538 -0.002789243 0.0002404287 -0.004792666
00000000: 098d 6b3b 6032 13bb 799d 84bb 6533 39bb
00000010: d63e 183a d4bf b838 e753 8b39 93b4 2a3b
00000020: ee25 533b c5a9 4eba acc5 963a 3db6 adba
00000030: bffb eeb9 8a16 cb3b 0d68 9fba 24bd 78bb
00000040: 9e11 43b9 35a0 8bba 1e53 43bb 1f4c 47bb
00000050: d966 9fbb c62b e7ba e02c 61bb b956 003b
00000060: f75a 1dbb 5a38 ee37 15d3 0e3b 7e97 28bb
00000070: 944b d53b bbcb 36bb 961b 7c39 cc0b 9dbb
